JetsonNANO_group10_no/model_weights.pth (torch, 15936 bytes, 4 tensors)

fc1.weight f4 [128, 24]
-0.18182643 0.15572053 -0.012549385 0.11160374 -0.18463562 -0.123380795 0.020889193 0.11393592
0.021322832 -0.1512196 0.18347341 -0.07757494 0.12859166 0.15604666 -0.19945154 -0.19584191
-0.108992666 -0.071684524 0.03641203 -0.2003357 -0.11569725 -0.1802193 -0.07564953 0.0091620535
-0.11578293 -0.17968607 -0.17052782 -0.11848351 -0.036049053 0.062063664 0.14978606 0.05698687
-0.07552686 -0.022745416 -0.09007547 -0.10818723 0.08921221 0.049814135 -0.15790123 -0.14267662
0.12635925 0.1550624 0.15061644 0.14561996 -0.07677503 -0.1371598 0.087673694 0.048021704
-0.1285544 0.20051435 0.014870994 0.13800986 0.0015804578 0.09264644 0.120240174 -0.12907778
0.14262338 0.11772676 0.12698315 0.012557199 -0.10868073 -0.07491155 -0.026310045 -0.13204862
0.07746817 0.08621871 0.16892055 0.023484534 0.1374602 0.014414609 0.16632679 -0.19637363
-0.09588711 -0.16068414 0.16847497 -0.19345516 -0.20195146 -0.04472676 -0.0143274665 0.18645686
0.0009862185 -0.132195 0.10892862 -0.19806258 0.16865179 -0.1545341 0.06312019 -0.04581085
-0.016871065 0.01888208 0.0720551 -0.019018263 0.10112333 0.18775645 -0.17706445 -0.08113147
0.11546163 0.095624216 -0.21366933 -0.03525615 0.14417346 0.15051769 0.08287727 -0.12447123
0.167946 0.091949746 -0.046300363 0.014094416 0.030344872 -0.043878064 -0.15657412 -0.0756756
0.06846066 -0.17096953 -0.19046089 -0.1271261 -0.081665315 -0.17234075 -0.18534526 -0.014669274
0.0008937723 -0.039160974 -0.13815844 -0.0046873735 0.16567126 -0.17232497 -0.17205545 0.1545371
-0.011835977 -0.008069464 0.013593541 0.10129712 -0.05298376 0.13334559 0.17063494 0.15343289
0.1909652 0.051095694 0.15951465 0.051767215 -0.022050973 0.15796523 -0.1799522 -0.13621785
-0.18742537 -0.0623728 -0.07744948 0.039294418 -0.069018014 -0.13543881 0.198183 0.084661506
0.04444441 -0.1729659 -0.16442308 0.24050793 0.03519026 -0.15059742 0.11212946 0.1309591
-0.008469875 0.014375359 -0.06366323 0.14477363 0.2094034 0.19431834 0.11720212 -0.05380126
-0.13020569 -0.022367224 0.040853024 -0.19981737 0.10303113 0.17340237 -0.12516746 -0.118392915
-0.012445435 -0.18543297 0.03304659 0.0044068694 0.016775414 -0.04679458 0.17164418 -0.17713174
-0.1347054 -0.04310012 -0.006522745 -0.15684079 0.154746 0.08554 0.054715365 -0.09358733
-0.09924293 -0.055421304 0.20056945 -0.074912615 0.19270724 0.04291948 -0.08905034 -0.19908237
0.01577666 -0.1752761 0.07114504 0.096066505 -0.11128242 -0.084036164 -0.08051375 -0.024917852
0.10186906 -0.07142984 0.12805268 0.08841722 -0.03691276 0.094752714 0.045481354 -0.025027238
0.19787426 -0.18666625 -0.07497583 -0.043677934 0.10564136 0.19675753 -0.102688715 0.059448972
-0.0013517134 0.08894814 0.025640914 -0.014656936 -0.09887118 -0.11731539 -0.055372525 0.14181612
0.16226977 0.004303239 0.020132272 -0.016234064 -0.055680025 0.15397248 0.08454151 0.20534286
0.1088592 -0.07724435 -0.042215735 0.027038833 0.17422669 0.19030859 0.070987485 0.12577397
0.09499388 -0.10096583 -0.069988966 -0.09491312 -0.09033526 0.18579397 -0.18583988 0.043057825
00000000: b530 3abe 3475 1f3e f09b 4dbc 8090 e43d
00000010: 1f11 3dbe 12af fcbd d01f ab3c 3c57 e93d
00000020: 38ad ae3c 50d9 1abe 74e0 3b3e 9cdf 9ebd
00000030: 88ad 033e b2ca 1f3e 063d 4cbe c88a 48be
00000040: 8c37 dfbd 56cf 92bd c824 153d cd24 4dbe
00000050: aef2 ecbd 688b 38be 24ee 9abd 701c 163c
00000060: 9a1f edbd a0ff 37be d89e 2ebe 7ca7 f2bd
00000070: 2ca8 13bd 7836 7e3d 8461 193e 106b 693d
00000080: d4ad 9abd 9854 babc 7d79 b8bd 4491 ddbd
00000090: e4b4 b63d e809 4c3d dcb0 21be d219 12be
000000a0: 5264 013e aec8 1e3e 323b 1a3e 661d 153e
000000b0: 3a3c 9dbd 9e73 0cbe 448e b33d 68b2 443d
000000c0: c4a3 03be a253 4d3e 78a5 733c 7552 0d3e
000000d0: 5d27 cf3a 6bbd bd3d 7b40 f63d f72c 04be
000000e0: dd0b 123e ba1a f13d df07 023e b6bc 4d3c
000000f0: 0194 debd 3a6b 99bd 2a88 d7bc c137 07be
00000100: a2a7 9e3d 6f93 b03d 82f9 2c3e a362 c03c
00000110: 5ec2 0c3e 412b 6c3c 9251 2a3e 2b16 49be
00000120: 7660 c4bd 628a 24be b484 2c3e 1c19 46be
00000130: 5dcc 4ebe 6833 37bd c0bd 6abc 8cee 3e3e
00000140: 0044 813a 205e 07be f815 df3d ebd0 4abe
00000150: 0eb3 2c3e 303e 1ebe 2845 813d 28a4 3bbd
00000160: 3035 8abc 98ae 9a3c a091 933d 30cc 9bbc
00000170: c019 cf3d 3a43 403e 6250 35be 4228 a6bd
00000180: 2677 ec3d a1d6 c33d 22cc 5abe c168 10bd
00000190: 35a2 133e 4f21 1a3e 8fbb a93d c6ea febd
000001a0: 09fa 2b3e 2650 bc3d 73a5 3dbd 44ec 663c
000001b0: cf95 f83c 7cb9 33bd f754 20be cffb 9abd
000001c0: 1a35 8c3d a312 2fbe 2e08 43be 582d 02be
000001d0: 2540 a7bd 187a 30be 26cb 3dbe 6557 70bc
000001e0: 0b4c 6a3a 4267 20bd 6879 0dbe 8a98 99bb
000001f0: baa5 293e f575 30be 4e2f 30be f93e 1e3e
00000200: b0eb 41bc c935 04bc 72b7 5e3c dd74 cf3d
00000210: 8005 59bd bf8b 083e edba 2e3e 831d 1d3e
00000220: 628c 433e b849 513d cf57 233e dc09 543d
00000230: 3ea4 b4bc a3c1 213e 6445 38be b17c 0bbe
00000240: 70ec 3fbe 9f7a 7fbd d59d 9ebd 2ff3 203d
00000250: 5159 8dbd 79b0 0abe 7cf0 4a3e 0363 ad3d
00000260: 570b 363d f91d 31be 865e 28be b647 763e
00000270: a923 103d 3636 1abe 21a4 e53d 241a 063e
00000280: 3bc5 0abc a086 6b3c de61 82bd 8a3f 143e
00000290: d86d 563e 63fb 463e aa07 f03d b65e 5cbd
000002a0: a454 05be 783b b7bc 8055 273d ed9c 4cbe
000002b0: fc01 d33d 6490 313e e62b 00be fc77 f2bd
000002c0: f0e7 4bbc 24e2 3dbe dc5b 073d 8067 903b
000002d0: 986c 893c acab 3fbd 7ec3 2f3e 0662 35be
000002e0: 36f0 09be c089 30bd c0bc d5bb df9a 20be
000002f0: bc75 1e3e 982f af3d 381d 603d b7aa bfbd
00000300: e13f cbbd 7301 63bd 1462 4d3e c96b 99bd
00000310: 0c55 453e 56cc 2f3d 0660 b6bd 40dc 4bbe
00000320: 0e3e 813c 947b 33be 7eb4 913d 84be c43d
00000330: 0ae8 e3bd 271b acbd 65e4 a4bd 8620 ccbc
00000340: baa0 d03d cf49 92bd 3e20 033e 1614 b53d
00000350: d631 17bd b60d c23d a84a 3a3d ec05 cdbc
00000360: 8d9f 4a3e 7025 3fbe ee8c 99bd a2e7 32bd
00000370: 7f5a d83d ce7a 493e 764e d2bd c480 733d
00000380: fa2b b1ba 712a b63d e50c d23c a523 70bc
00000390: f97c cabd 0d43 f0bd 4dce 62bd 3f38 113e
000003a0: 0c2a 263e 2f02 8d3b 6fec a43c 4dfd 84bc
000003b0: bd10 64bd f6aa 1d3e 1924 ad3d 6645 523e
000003c0: 92f1 de3d 4932 9ebd 68ea 2cbd 8b80 dd3c
000003d0: 7b68 323e 41e0 423e e361 913d e4ca 003e
000003e0: 278c c23d 2cc7 cebd 6056 8fbd cf61 c2bd
000003f0: b101 b9bd c640 3e3e cf4c 3ebe 675d 303d

fc1.bias f4 [128]
-0.06964436 -0.04751551 0.19132163 -0.19774552 -0.14908841 -0.21185623 0.057687 0.13337633
-0.02441814 -0.07429878 0.2324416 -0.004524961 0.029461298 0.1410937 -0.16539112 0.16712207
0.103957586 0.15227196 -0.09099634 0.13090806 -0.14691846 -0.12006412 -0.12489305 0.21122853
-0.0871818 0.1628457 -0.16258612 -0.09802836 0.10356679 -0.13165815 -0.16796616 -0.08730961
-0.08429094 0.17098749 0.173067 0.07053265 0.016898261 0.008891963 -0.111763194 -0.100626886
0.11450794 0.028642986 -0.065066606 -0.13217679 0.010692775 -0.08361042 -0.12405871 -0.039215017
0.026477039 -0.16194102 0.07277244 -0.22850107 0.14332671 -0.1327558 0.18346557 0.060344838
-0.16975084 0.10035148 0.091196 0.15916082 -0.15061185 -0.098148815 -0.12158207 -0.019225067
0.1820974 0.07824895 -0.07317473 0.16801845 -0.16469641 0.17758995 0.12364182 0.04263606
0.19211324 -0.029971348 -0.025544109 -0.15576208 0.038675915 0.043662064 0.045497283 -0.040328547
0.018658904 -0.15945172 0.013085646 0.15630527 -0.105583325 0.17069963 0.18843383 -0.21877354
0.18258706 0.005001843 0.17079015 -0.13223858 -0.08678066 0.2479906 0.08667607 -0.10101614
0.16883048 0.11939089 0.054837666 -0.16965583 -0.10508413 -0.1128209 0.14207006 0.16449963
-0.2050653 -0.14418773 0.2069362 0.019437283 -0.0878327 -0.18125011 -0.17002964 -0.11917555
0.1043383 0.18922368 -0.06995062 -0.010223558 0.20022836 0.15477528 0.068502516 -0.06451708
0.15561242 0.047493704 -0.15845546 -9.689505e-05 -0.15560132 -0.16424735 0.08691655 -0.16658992
00000000: b4a1 8ebd a09f 42bd d1e9 433e cd7d 4abe
00000010: a2aa 18be d7f0 58be 3449 6c3d ce93 083e
00000020: 8d08 c8bc f529 98bd 2c05 6e3e 2046 94bb
00000030: d258 f13c de7a 103e 4a5c 29be 0c22 2b3e
00000040: b7e7 d43d 2eed 1b3e 4a5c babd c30c 063e
00000050: cb71 16be 2de4 f5bd edc7 ffbd 4b4c 583e
00000060: 5f8c b2bd 06c1 263e fa7c 26be 18c3 c8bd
00000070: d31a d43d 65d1 06be 52ff 2bbe 61cf b2bd
00000080: baa0 acbd 5817 2f3e 7a38 313e 6c73 903d
00000090: 396e 8a3c 99af 113c 1ae4 e4bd 7815 cebd
000000a0: 2483 ea3d b2a4 ea3c a441 85bd 5a59 07be
000000b0: c030 2f3c f13b abbd 7e12 febd ed9f 20bd
000000c0: 60e6 d83c ded3 25be b809 953d 2ffc 69be
000000d0: 3dc4 123e 23f1 07be 66de 3b3e 262c 773d
000000e0: 2ad3 2dbe 1485 cd3d f8c4 ba3d 0efb 223e
000000f0: fe39 1abe 3f02 c9bd 0500 f9bd e37d 9dbc
00000100: be77 3a3e fc40 a03d a2dc 95bd 070d 2c3e
00000110: 2da6 28be 24da 353e ec37 fd3d 26a3 2e3d
00000120: 55b9 443e 7986 f5bc e141 d1bc 1880 1fbe
00000130: a36a 1e3d fed6 323d 5c5b 3a3d 8c2f 25bd
00000140: 8fda 983c 5047 23be 2d65 563c 7d0e 203e
00000150: 123c d8bd e2cb 2e3e ccf4 403e 2c06 60be
00000160: 1af8 3a3e 80e6 a33b 9de3 2e3e 8d69 07be
00000170: 0fba b1bd 3ff1 7d3e 3983 b13d 8de1 cebd
00000180: e6e1 2c3e 3683 f43d 769d 603d 42ba 2dbe
00000190: 5936 d7bd a50e e7bd d07a 113e 9772 283e
000001a0: a3fc 51be f3a5 13be 15e7 533e f03a 9f3c
000001b0: a1e1 b3bd a199 39be 401c 2ebe 5012 f4bd
000001c0: 52af d53d dac3 413e 4542 8fbd b680 27bc
000001d0: aa08 4d3e 697d 1e3e 0c4b 8c3d 8821 84bd
000001e0: dd58 1f3e c288 423d 2642 22be 2234 cbb8
000001f0: f455 1fbe 7530 28be 4e01 b23d 8c96 2abe

fc2.weight f4 [2, 128]
0.0016452447 0.03689269 -0.10701694 0.075761534 0.053401038 0.17933817 0.10636411 -0.06265047
0.032546487 0.0230927 -0.1388636 0.05614794 0.098037675 -0.0047577308 0.014351994 -0.04864466
-0.17562082 0.08554935 -0.102742426 -0.07323401 -0.045124765 0.017815016 0.0025853254 -0.17477801
-0.09787438 0.17234391 -0.11495253 0.025672436 0.18915847 0.07288221 0.031471323 0.020108566
-0.059109762 0.06872714 -0.31229204 -0.0037477314 0.062986694 0.058177635 0.050783962 0.03395377
0.055465646 -0.053902004 -0.03974895 -0.19283907 -0.012271605 -0.007461 -0.05074362 -0.08265835
0.04794606 -0.08057096 -0.00024730712 0.18439156 -0.041989658 -0.1213013 0.08331972 0.053821012
-0.07532157 -0.033674397 0.060986884 -0.10083605 0.045957185 -0.0021965578 0.026903825 -0.024272563
-0.07148203 0.016457587 0.04583078 0.09777933 -0.022165509 -0.017544994 0.008271396 0.09900174
-0.15668097 0.0034991954 0.11685117 -0.074412934 -0.10719819 0.21895829 0.029028475 0.18728374
-0.16024524 0.019851867 0.047350347 0.04906053 0.05534668 0.01769986 -0.08406723 0.10289235
-0.03922417 0.040654324 -0.1399006 0.033039242 0.23401634 -0.22431485 0.07757777 -0.034111775
-0.101114 0.050963983 -0.21801598 -0.035810553 -0.07503535 0.09411576 -0.04352432 -0.17221409
0.053021897 -0.05801537 -0.14611703 0.04421427 0.03991019 -0.0849626 0.06748714 0.16525005
-0.16791971 -0.12959138 0.010477163 0.11786779 -0.02774838 0.02305855 -0.03160983 0.07368799
-0.08300744 -0.04438643 -0.063084155 -0.0146893645 -0.08532463 0.04868891 0.013707971 0.105984114
-0.081905 -0.009592004 0.053920843 0.055683114 -0.07685776 -0.07972499 -0.2016311 0.067321144
0.039416436 -0.016859373 0.12373564 0.055192254 -0.07641577 -0.07200675 0.0873845 0.056599684
0.017235093 -0.10280306 0.049227457 0.021139953 -0.059372317 0.038675867 -0.10301435 0.20074067
-0.011475666 -0.18281306 0.0010364191 0.04515844 -0.14595379 0.04526738 0.07304575 -0.04971653
-0.0077412054 -0.0712842 0.19625594 -0.08292956 0.03809097 -0.03275206 0.047213376 -0.08663896
-0.024379961 0.06137612 -0.084367014 0.19130984 0.027633086 0.0062191878 -0.066340834 0.016303472
0.037721135 0.0191859 -0.06528777 -0.32119998 0.14707309 0.14390853 0.026262037 -0.0451334
0.015783587 -0.01691723 0.03422126 -0.02968324 -0.056594007 0.007816367 0.09558015 -0.05114006
0.07069037 0.075626425 -0.02627838 0.003145575 0.06112141 -0.12103893 0.04011572 0.006708127
0.18778354 -0.005663299 -0.063148394 0.03774573 0.16897276 -0.12538256 -0.039946046 -0.13294107
0.08402616 0.044891857 -0.0051172622 -0.084222525 -0.041462604 -0.0031784947 -0.06557208 -0.089576304
0.10008724 -0.020719804 0.02515304 0.055267088 -0.2508796 0.22944365 -0.040323496 0.12390759
-0.03371877 -0.018808419 0.12771615 -0.080386095 -0.016939523 -0.12608725 0.08816283 0.24229147
0.014901377 -0.016696043 0.24096261 -0.061340395 0.022535056 -0.036816273 0.04114572 -0.03110951
0.12533526 0.22658607 -0.002912596 -0.22762728 0.01859399 -0.000765156 0.05452644 -0.07659746
0.031948496 -0.04365098 0.02050694 -0.024928503 -0.08097815 -0.04447701 -0.08251734 -0.0769096
00000000: 40a5 d73a ca1c 173d b32b dbbd dd28 9b3d
00000010: 0cbb 5a3d 6da4 373e 6dd5 d93d e44e 80bd
00000020: 774f 053d e72c bd3c 4232 0ebe 62fb 653d
00000030: fac7 c83d bde6 9bbb a024 6b3c 9f3f 47bd
00000040: f2d5 33be 7f34 af3d 9f6a d2bd b6fb 95bd
00000050: bfd4 38bd ccf0 913c 906e 293b 02f9 32be
00000060: 5d72 c8bd ec7a 303e 3b6c ebbd 004f d23c
00000070: c2b2 413e 4543 953d 13e8 003d b8ba a43c
00000080: 141d 72bd d1c0 8c3d bee4 9fbe 809c 75bb
00000090: 2bff 803d ac4b 6e3d d802 503d 1c13 0b3d
000000a0: f22f 633d 59c8 5cbd cccf 22bd 9b77 45be
000000b0: d80e 49bc 677b f4bb 8bd8 4fbd c848 a9bd
000000c0: 1663 443d 6302 a5bd 00a9 81b9 24d1 3c3e
000000d0: 59fd 2bbd d16c f8bd 88a3 aa3d 6c73 5c3d
000000e0: 3242 9abd 2aee 09bd 62cd 793d 2283 cebd
000000f0: 9a3d 3c3d 20f4 0fbb 6965 dc3c 41d7 c6bc
00000100: 2c65 92bd 10d2 863c 0eb9 3b3d 8840 c83d
00000110: 7194 b5bc 85ba 8fbc c084 073c 6dc1 ca3d
00000120: fa70 20be c252 653b ab4f ef3d cf65 98bd
00000130: ba8a dbbd 9a36 603e 20cd ed3c 4fc7 3f3e
00000140: 5417 24be 62a0 a23c 70f2 413d b2f3 483d
00000150: 33b3 623d 4cff 903c 712b acbd 39b9 d23d
00000160: 86a9 20bd 2685 263d 1a42 0fbe 2854 073d
00000170: fba1 6f3e cbb2 65be 18e1 9e3d cab8 0bbd
00000180: db14 cfbd 9cbf 503d 953f 5fbe 16ae 12bd
00000190: 22ac 99bd c3bf c03d 8f46 32bd e458 30be
000001a0: 7d2d 593d 86a1 6dbd b49f 15be 061a 353d
000001b0: de78 233d df00 aebd b336 8a3d 4f37 293e
000001c0: 25f3 2bbe 9ab3 04be 68a8 2b3c ab64 f13d
000001d0: 9250 e3bc 49e5 bc3c 4f79 01bd bbe9 963d
000001e0: ceff a9bd 8cce 35bd 4432 81bd a9ab 70bc
000001f0: aebe aebd 066e 473d 6697 603c 330e d93d
00000200: cfbd a7bd c827 1dbc 1adc 5c3d fa13 643d
00000210: 9a67 9dbd db46 a3bd 6278 4ebe abdf 893d
00000220: 2173 213d ab1c 8abc 1c69 fd3d 4611 623d
00000230: df7f 9cbd 4678 93bd a5f6 b23d 12d5 673d
00000240: 9c30 8d3c 698a d2bd bba2 493d b22d ad3c
00000250: 6330 73bd 966a 1e3d 30f9 d2bd f68e 4d3e
00000260: 6f04 3cbc 5933 3bbe 74d8 873a 0ef8 383d
00000270: e974 15be 4a6a 393d 0399 953d 8fa3 4bbd
00000280: f0a9 fdbb 73fd 91bd 51f7 483e f9d6 a9bd
00000290: 4705 1c3d 0627 06bd d062 413d c46f b1bd
000002a0: 7cb8 c7bc 8765 7b3d 9dc8 acbd bae6 433e
000002b0: c85e e23c 54ca cb3b b4dd 87bd dc8e 853c
000002c0: 7a81 1a3d c02b 9d3c 98b5 85bd 5374 a4be
000002d0: 549a 163e c25c 133e 7c23 d73c cddd 38bd
000002e0: 954c 813c 0196 8abc 982b 0c3d 442a f3bc
000002f0: 1ecf 67bd 3810 003c 87bf c33d 3d78 51bd
00000300: 1dc6 903d 07e2 9a3d c245 d7bc fe25 4e3b
00000310: 725a 7a3d 42e3 f7bd 6250 243d d9cf db3b
00000320: 544a 403e 3293 b9bb f253 81bd 449b 1a3d
00000330: 3207 2d3e 4964 00be 779e 23bd b421 08be
00000340: e815 ac3d 86e0 373d b5ae a7bb dc7c acbd
00000350: b1d4 29bd 4b4e 50bb a84a 86bd c873 b7bd
00000360: 8afa cc3d 94bc a9bc c00d ce3c be5f 623d
00000370: 4a73 80be 47f3 6a3e 402a 25bd 43c3 fd3d
00000380: b11c 0abd 1d14 9abc 06c8 023e 77a1 a4bd
00000390: c1c4 8abc 041d 01be b78e b43d 411b 783e
000003a0: e824 743c 24c6 88bc e7be 763e 1140 7bbd
000003b0: 709b b83c a9cc 16bd 6a88 283d 5fd9 febc
000003c0: e357 003e 2e06 683e 41e1 3ebb 2017 69be
000003d0: 6c52 983c c094 48ba 1e57 5f3d 21df 9cbd
000003e0: 6ddc 023d 5fcb 32bd 2cfe a73c dc36 ccbc
000003f0: dfd7 a5bd 862d 36bd dafe a8bd c882 9dbd

fc2.bias f4 [2]
-0.17383413 0.3231173
00000000: 9301 32be a16f a53e
