SVM_test/simple_nn_model.pth (torch, 15952 bytes, 4 tensors)

fc1.weight f4 [128, 24]
-0.22341399 0.06811772 -0.20708284 -0.04687994 -0.1686396 0.08265763 0.0703159 -0.03150828
0.086875394 0.09455653 0.051113296 0.07150289 0.07805255 0.09851601 0.12277938 -0.12753314
-0.16792543 0.07869372 0.11317996 0.15367976 -0.090259194 -0.03950864 0.08656895 0.0052250805
0.19093588 -0.16248856 -0.10368183 0.05408746 0.15532124 -0.107014015 -0.10463542 0.037347093
0.05680865 -0.03900732 -0.18943049 -0.05010782 0.11386374 -0.20281248 -0.17396559 -0.16234243
-0.092024945 -0.09810825 -0.18591693 -0.009767339 -0.18981905 0.07332522 0.17433262 0.19807056
-0.30122256 0.0053856424 0.07619394 -0.0046281805 -0.14826247 -0.22008096 0.25611293 0.057738822
-0.33035505 0.061516292 -0.016452376 0.2160896 -0.067207 0.10484461 0.11387849 0.37988868
-0.057541646 -0.13167231 0.34811088 0.2589296 0.072978914 0.24939764 0.04370007 -0.048988055
0.18542862 0.16313915 0.2612383 0.05662866 0.22127034 -0.026387593 0.1354273 0.025594473
0.071051404 -0.15033942 -0.05915171 -0.018885529 0.2133158 0.1782244 -0.26361364 -0.21681616
0.28930333 -0.16797702 -0.09089373 -0.05305666 -0.09273406 0.06360197 -0.11327342 -0.08087592
0.040885195 -0.04631519 0.015449648 0.05990068 0.28078437 -0.02894429 -0.22548373 0.09765209
-0.06613416 -0.016786948 -0.021454684 -0.01957397 0.2484461 0.09569089 -0.2071537 0.07958133
0.14996223 -0.18443128 -0.12619044 -0.006715714 0.13093662 0.1023098 0.0002721401 -0.089423366
-0.12599245 -0.17684153 0.17074206 0.14809719 -0.18355766 -0.0112463385 0.074320406 0.054974824
-0.06252986 -0.15047926 -0.06571163 -0.117797524 -0.05055493 -0.05099812 0.092501104 0.07130355
0.09432 -0.06652057 -0.13865532 -0.14396128 0.03168662 0.13938764 0.0445839 0.09486699
0.19488476 0.11564838 0.25601134 0.1668377 0.21271564 0.20886281 -0.20037149 -0.18597586
0.28128725 0.20274015 -0.02875394 -0.112297535 -0.036184616 -0.13743208 -0.09101912 0.016678683
-0.042211402 0.035340197 -0.12016532 -0.092810884 -0.12112991 -0.026828066 0.18123952 -0.04287263
0.027151436 -0.152814 -0.13521612 0.17794934 -0.15972747 -0.20206861 0.08376241 0.03419511
0.06551325 -0.19542243 -0.16352983 -0.02172643 -0.2019185 -0.037483394 -0.15405169 -0.15273468
0.03667347 -0.110343255 -0.01936467 -0.10597281 -0.19573903 -0.077669784 -0.111708626 -0.012457684
0.083637476 -0.20246166 -0.13299838 0.0743103 -0.08506496 -0.065105364 -0.12948845 -0.18455574
0.103461236 -0.039007246 -0.20158498 0.018325508 0.17482045 0.008917153 -0.030035436 0.16484895
-0.045338944 0.15937251 0.14565125 0.12361416 -0.030271083 -0.120653376 0.19839516 -0.20035376
-0.04135588 -0.2301321 -0.14149085 -0.080051266 -0.07103757 -0.2218038 -0.07977192 -0.042038888
0.09074843 0.13991961 0.0750638 0.23678912 0.038423475 0.15477961 0.015307872 0.11914602
0.010229662 0.21030238 0.2851567 0.011465346 0.11274618 -0.124482624 -0.12126284 0.25589126
0.03037031 0.13575831 -0.17308491 -0.1828541 0.025495732 0.07427545 0.0917663 0.16239767
-0.2396806 -0.10565613 0.10114336 0.29968387 -0.18008284 -0.030450195 0.1609409 0.29734865
00000000: a3c6 64be 4e81 8b3d 860d 54be 2e05 40bd
00000010: dcaf 2cbe 6748 a93d c801 903d d40e 01bd
00000020: baeb b13d dba6 c13d 2d5c 513d 1b70 923d
00000030: 04da 9f3d c3c2 c93d c173 fb3d 0c98 02be
00000040: a5f4 2bbe 2c2a a13d e5ca e73d 3a5e 1d3e
00000050: d0d9 b8bd d0d3 21bd 104b b13d 2737 ab3b
00000060: b284 433e 6763 26be 2457 d4bd d08a 5d3d
00000070: 880c 1f3e 2a2a dbbd 184b d6bd 44f9 183d
00000080: 30b0 683d 24c6 1fbd 11fa 41be dc3d 4dbd
00000090: 6431 e93d 13ae 4fbe 0924 32be 183d 26be
000000a0: 9377 bcbd faec c8bd 0261 3ebe 3007 20bc
000000b0: ed5f 42be 882b 963d 4084 323e 02d3 4a3e
000000c0: d839 9abe 0b7a b03b 920b 9c3d fea7 97bb
000000d0: 1ed2 17be e75c 61be 3c21 833e 8b7f 6c3d
000000e0: 4c24 a9be 82f8 7b3d 22c7 86bc 9846 5d3e
000000f0: d3a3 89bd c5b8 d63d 2039 e93d c580 c23e
00000100: cab0 6bbd 1bd5 06be 973b b23e 6c92 843e
00000110: f875 953d 1862 7f3e d8fe 323d b3a7 48bd
00000120: 00e1 3d3e f30d 273e 07c1 853e 74f3 673d
00000130: b194 623e cb2a d8bc 74ad 0a3e 80ab d13c
00000140: 6683 913d 94f2 19be 1049 72bd d3b5 9abc
00000150: 756f 5a3e 7580 363e 5ef8 86be 0e05 5ebe
00000160: 911f 943e 2b02 2cbe 7e26 babd f151 59bd
00000170: 5beb bdbd c041 823d e5fb e7bd 46a2 a5bd
00000180: 3c77 273d ffb4 3dbd 8520 7d3c 6a5a 753d
00000190: f8c2 8f3e 931c edbc 35e5 66be d2fd c73d
000001a0: 5971 87bd c884 89bc bcc1 afbc 9759 a0bc
000001b0: a868 7e3e 96f9 c33d 1920 54be 89fb a23d
000001c0: b38f 193e 8edb 3cbe 1138 01be 7e0f dcbb
000001d0: 4014 063e cd87 d13d 07ae 8e39 9923 b7bd
000001e0: 2a04 01be f215 35be 02d7 2e3e caa6 173e
000001f0: 8af6 3bbe 9042 38bc 4c35 983d 482d 613d
00000200: a80f 80bd 3c17 1abe d293 86bd d43f f1bd
00000210: b012 4fbd 68e3 50bd 3871 bd3d 9807 923d
00000220: d82a c13d f03b 88bd a9fb 0dbe 966a 13be
00000230: d4c9 013d a2bb 0e3e 9c9d 363d a049 c23d
00000240: df8f 473e 0fd9 ec3d eb13 833e 81d7 2a3e
00000250: 21d2 593e 22e0 553e 2f2e 4dbe 7570 3ebe
00000260: e204 903e 1d9b 4f3e 628d ebbc 40fc e5bd
00000270: 5236 14bd ffba 0cbe 3b68 babd bca1 883c
00000280: dde5 2cbd e2c0 103d 3c19 f6bd a213 bebd
00000290: f512 f8bd 88c6 dbbc da96 393e 369b 2fbd
000002a0: b06c de3c 467b 1cbe 1876 0abe 5a38 363e
000002b0: 998f 23be 13eb 4ebe a08b ab3d 2c10 0c3d
000002c0: d02b 863d d11c 48be 5d74 27be a0fb b1bc
000002d0: b9c3 4ebe 3088 19bd babf 1dbe 7b66 1cbe
000002e0: ec36 163d a5fb e1bd a8a2 9ebc 4608 d9bd
000002f0: d06f 48be 5611 9fbd 7ec7 e4bd 501b 4cbc
00000300: 204a ab3d 1c52 4fbe ba30 08be 0030 983d
00000310: 8a36 aebd f655 85bd 9f98 04be 2efc 3cbe
00000320: 7ce3 d33d 10c6 1fbd 4b6c 4ebe 601f 963c
00000330: 2204 333e 4019 123c e00c f6bc 2ace 283e
00000340: 54b5 39bd 8c32 233e 9a25 153e 6c29 fd3d
00000350: 10fb f7bc 1e19 f7bd 1a28 4b3e 8929 4dbe
00000360: c964 29bd c0a7 6bbe fae2 10be ebf1 a3bd
00000370: 257c 91bd 8920 63be 765f a3bd f830 2cbd
00000380: 50da b93d 1647 0f3e 0dbb 993d d978 723e
00000390: ef61 1d3d 8c7e 1e3e decd 7a3c d402 f43d
000003a0: 509a 273c 8259 573e 0f00 923e 26d9 3b3c
000003b0: 78e7 e63d bff0 febd a758 f8bd 2e04 833e
000003c0: 28cb f83c 3a04 0b3e 2c3d 31be 1b3e 3bbe
000003d0: 6ddc d03c ba1d 983d f8ef bb3d 934b 263e
000003e0: d56e 75be 3e62 d8bd 4024 cf3d 2a70 993e
000003f0: a367 38be b072 f9bc b1cd 243e 153e 983e

fc1.bias f4 [128]
-0.09177564 -0.123367414 0.018565578 0.055418015 0.21512374 -0.09868103 0.27053073 0.13857651
-0.15017083 0.011555671 -0.21414228 -0.17622279 0.22230017 -0.012352002 0.0749295 -0.14166299
-0.14745787 0.01920473 -0.12979925 -0.15298322 -0.09890497 -0.16420414 0.04288882 0.0387164
0.030154495 -0.021340236 -0.20821397 0.08837396 0.28760263 0.075627804 -0.086034216 -0.06254003
0.124599874 -0.029570183 0.011032829 -0.28936237 -0.08436646 -0.05428201 0.3654849 -0.16867249
0.22684011 -0.09880747 -0.24763796 0.0017125484 0.29349527 0.19182539 0.17807397 0.049990688
0.15500972 -0.18198144 0.08116084 -0.22330105 -0.06441799 0.10003487 -0.13989706 -0.14216338
0.2027742 -0.29371607 0.09931202 0.15092324 0.011891504 -0.22401984 0.081893854 -0.12890849
0.23663242 0.033236913 -0.051967572 -0.106032886 -0.15874581 -0.18745846 -0.1013803 0.0501287
0.051405966 -0.061260447 -0.16679956 -0.20224498 0.032176986 0.20275971 0.07841366 0.09256342
-0.06643906 -0.002829592 -0.19899568 0.009608069 0.06811207 0.1315845 0.024285315 0.113738745
0.3145376 -0.06732814 0.19850922 0.28902012 -0.0061133956 -0.19164933 0.10024426 0.14654084
-0.18065888 0.12409815 0.23518744 0.015311719 0.04016061 -0.046935465 -0.13485545 -0.043698817
0.010611082 -0.079357825 -0.22191803 -0.19570397 0.14148328 0.16758302 -0.11051809 -0.042766184
-0.1428806 -0.14346442 -0.10516182 0.061689224 0.10743821 -0.18322277 0.10970521 0.1401993
0.08804479 -0.06666979 0.14480546 0.29933015 -0.08219321 -0.030424029 0.07411969 -0.013584356
00000000: def4 bbbd 0ea8 fcbd d716 983c 00fe 623d
00000010: 6649 5c3e 4819 cabd 0183 8a3e 00e7 0d3e
00000020: 62c6 19be ff53 3d3c 1d48 5bbe bf73 34be
00000030: a8a2 633e 0d60 4abc a374 993d 1a10 11be
00000040: 32ff 16be 3d53 9d3c 18ea 04be a2a7 1cbe
00000050: b08e cabd 2125 28be 30ac 2f3d 1695 1e3d
00000060: 8f06 f73c b8d1 aebc 0b36 55be 68fd b43d
00000070: a740 933e c0e2 9a3d b532 b0bd fd14 80bd
00000080: 382e ff3d 2b3d f2bc 0ac3 343c 4e27 94be
00000090: 53c8 acbd d056 5ebd d620 bb3e 7bb8 2cbe
000000a0: c648 683e 925b cabd ce94 7dbe 9777 e03a
000000b0: 0345 963e e06d 443e 0659 363e 09c3 4c3d
000000c0: deba 1e3e 5859 3abe a837 a63d 08a9 64be
000000d0: 94ed 83bd 15df cc3d 2d41 0fbe 4793 11be
000000e0: 0aa4 4f3e f461 96be 1a64 cb3d 9f8b 1a3e
000000f0: 95d4 423c 7565 65be f7b7 a73d 9600 04be
00000100: c54f 723e 6e23 083d f3db 54bd c527 d9bd
00000110: 438e 22be 1cf5 3fbe 7aa0 cfbd c053 4d3d
00000120: 108f 523d 3cec 7abd 81cd 2abe 4f19 4fbe
00000130: 04cc 033d 3ea0 4f3e 5797 a03d e491 bd3d
00000140: 3411 88bd ad70 39bb 86c5 4bbe 2a6b 1d3c
00000150: 577e 8b3d 16be 063e fff1 c63c dcef e83d
00000160: 130b a13e 56e3 89bd 0046 4b3e 72fa 933e
00000170: e152 c8bb b93f 44be dd4c cd3d cd0e 163e
00000180: a4fe 38be 2c27 fe3d fad4 703e 01de 7a3c
00000190: 747f 243d 673f 40bd 8c17 0abe 88fd 32bd
000001a0: 1bda 2d3c 5b86 a2bd 7b3e 63be 9f66 48be
000001b0: fee0 103e e29a 2b3e 4f57 e2bd 982b 2fbd
000001c0: 4b4f 12be 56e8 12be 155f d7bd d7ad 7c3d
000001d0: 9008 dc3d c09e 3bbe 20ad e03d 6890 0f3e
000001e0: d450 b43d 2c8a 88bd e247 143e cd41 993e
000001f0: ea54 a8bd d03b f9bc 10cc 973d eb90 5ebc

fc2.weight f4 [2, 128]
0.0022578076 0.02205851 0.23300041 -0.17318802 -0.14002094 0.014257699 -0.19078076 0.05252429
0.04419277 0.09531491 0.1465054 -0.04040179 -0.19252053 -0.0027817562 -0.1924702 -0.061356116
-0.004340239 -0.05187085 -0.033983182 -0.0029230283 0.14226209 0.049380254 0.022781117 0.050180607
-0.19676836 -0.040491287 0.070240304 0.11662818 -0.08632857 -0.11561142 0.028050173 -0.19774564
-0.065396726 -0.011838822 -0.23583865 0.03593948 0.0025081604 0.12987684 -0.0730347 0.07935205
-0.13869454 0.005339898 0.123290524 0.019848928 -0.17952746 0.012671366 0.05308237 0.11526469
0.07384763 0.029874325 -0.1253642 0.119429186 -0.08387065 -0.11079293 0.06146743 0.08676117
-0.04253644 0.047533922 -0.082755454 0.013829324 -0.05560949 0.05791325 -0.20792033 0.20058174
-0.08804593 -0.12288201 0.020230649 0.0362038 0.10773571 0.102636166 0.15977658 -0.01735465
-0.02738617 0.00070299953 0.09208011 0.14440016 -0.0006516776 -0.22071351 0.12859815 0.05196821
-0.023765206 -0.02578965 0.104128815 -0.21791458 0.062206 -0.047184005 0.08848954 -0.014667101
-0.17098847 0.13101624 0.001719825 -0.08749819 -0.18567526 0.06914936 -0.10844107 -0.2275437
0.0109566 0.009108879 -0.14305635 -0.037751973 0.057491712 0.0627158 0.081480496 -0.014247081
0.06862996 0.13506573 0.21254097 -0.075616874 -0.0031340066 0.066028096 -0.041937683 0.07733875
0.15508215 0.013460628 -0.011500716 0.00018888016 0.1244816 0.04411041 -0.0006014854 -0.008003748
0.0043494254 0.042820297 0.028217703 -0.030232932 0.12518539 0.037585896 -0.11547144 -0.18683475
-0.053906437 0.029116824 -0.1355542 0.1672852 0.07582534 0.03248565 0.09971683 -0.07734241
0.055715404 -0.043187156 -0.091817565 -0.023126505 0.22563627 -0.08106302 0.121407114 -0.070689574
0.035696864 0.05921012 -0.016695775 -0.018351778 -0.11484361 -0.12616235 -0.03804821 -0.02792691
0.20053658 -0.06336921 -0.006031799 -0.0058749737 0.16883114 0.19522823 0.02323561 0.2577406
-0.036748014 0.026801616 0.21777947 -0.107381575 0.035386257 -0.12446567 0.09805489 0.088981375
0.12648313 -0.053138725 -0.14657328 -0.042154107 0.121752724 -0.058876038 -0.083584346 -0.15840024
0.05759359 0.015427865 0.1206549 -0.1117518 -0.03199718 0.24137646 0.07345257 0.021544762
-0.056439076 -0.082856104 0.0062462864 0.0100308675 0.0070927646 -0.10339466 0.14759903 -0.11186358
0.05604058 0.097089164 0.06498068 0.06427293 -0.11106168 -0.1713161 -0.054785226 -0.06686837
0.07942525 0.021886572 -0.16043611 -0.07214426 0.10457684 0.0509747 -0.008746567 -0.08749498
-0.038575914 0.1362882 -0.0044387607 0.2593236 -0.1775326 -0.03781615 -0.089690536 0.039517798
0.07626829 -0.11424421 -0.033342604 0.18572868 0.19207832 -0.0025557668 0.004418446 0.18977779
-0.07281096 0.023239896 0.088418305 0.008407611 -0.019353516 0.011686906 0.053954177 0.0024136072
-0.12787713 -0.17155585 -0.21419398 0.071122564 -0.009769327 0.067138605 -0.03414406 0.0845683
-0.14820935 -0.07849428 0.050816603 -0.012934466 -0.13945994 -0.08460596 0.030069783 0.029948002
-0.05872591 -0.018117033 0.05643312 0.16110356 -0.07236617 -0.12068881 0.010982018 0.15652187
00000000: baf7 133b 0cb4 b43c a997 6e3e 3358 31be
00000010: a661 0fbe 2099 693c 085c 43be b623 573d
00000020: 7a03 353d 7734 c33d 8305 163e 597c 25bd
00000030: 1a24 45be 204e 36bb e816 45be 8d50 7bbd
00000040: 9038 8ebb 8776 54bd f331 0bbd 4790 3fbb
00000050: 27ad 113e f342 4a3d 779f ba3c 2e8a 4d3d
00000060: a57d 49be 31da 25bd 26da 8f3d c1da ee3d
00000070: 09cd b0bd aec5 ecbd 7ac9 e53c d57d 4abe
00000080: b8ee 85bd 9ef7 41bc b07f 71be 4735 133d
00000090: f35f 243b 6ffe 043e 3793 95bd 5483 a23d
000000a0: f105 0ebe 50fa ae3b be7f fc3d 389a a23c
000000b0: 0cd6 37be 909b 4f3c e66c 593d e50f ec3d
000000c0: 6d3d 973d 00bb f43c 795f 00be 4a97 f43d
000000d0: 60c4 abbd 67e7 e2bd 46c5 7b3d d7af b13d
000000e0: b13a 2ebd eeb2 423d b17b a9bd 6494 623c
000000f0: c7c6 63bd 7236 6d3d 11e9 54be 4d65 4d3e
00000100: 6d51 b4bd 90a9 fbbd bfba a53c 704a 143d
00000110: 8aa4 dc3d e932 d23d 799c 233e 572b 8ebc
00000120: f658 e0bc 8049 383a 7f94 bc3d a3dd 133e
00000130: 58d5 2aba b902 62be 3caf 033e 9edc 543d
00000140: 40af c2bc d144 d3bc 7d41 d53d 0025 5fbe
00000150: b8cb 7e3d 0444 41bd 013a b53d 484e 70bc
00000160: 9a17 2fbe 1f29 063e c06b e13a 4032 b3bd
00000170: a821 3ebe 2e9e 8d3d 5a16 debd 3701 69be
00000180: 5083 333c 683d 153c 5d7d 12be d0a1 1abd
00000190: 6e7c 6b3d 2471 803d 3fdf a63d 976c 69bc
000001a0: dd8d 8c3d ac4e 0a3e 57a4 593e 05dd 9abd
000001b0: e863 4dbb bd39 873d d9c6 2bbd c763 9e3d
000001c0: dbcd 1e3e f789 5c3c 806d 3cbc 220e 4639
000001d0: 36f0 fe3d 1ead 343d 00ad 1dba 2722 03bc
000001e0: a085 8e3b 5664 2f3d d028 e73c 0eab f7bc
000001f0: 9930 003e abf3 193d 4a7c ecbd 9c51 3fbe
00000200: ffcc 5cbd 6886 ee3c b8ce 0abe d04c 2b3e
00000210: 514a 9b3d ac0f 053d 5638 cc3d b365 9ebd
00000220: d635 643d 04e5 30bd d90a bcbd cc73 bdbc
00000230: 320d 673e 5e04 a6bd 4ba4 f83d b2c5 90bd
00000240: e036 123d 5086 723d 94c5 88bc 7856 96bc
00000250: 2033 ebbd b430 01be 71d8 1bbd fac6 e4bc
00000260: 7659 4d3e b7c7 81bd 66a6 c5bb da82 c0bb
00000270: 12e2 2c3e e9e9 473e 9b58 be3c 93f6 833e
00000280: 1685 16bd 108f db3c 9501 5f3e dfea dbbd
00000290: 2ef1 103d dbe7 febd 01d1 c83d de3b b63d
000002a0: cb84 013e fea7 59bd 4e17 16be c9a9 2cbd
000002b0: 7e59 f93d 0028 71bd 452e abbd ac33 22be
000002c0: 42e7 6b3d 28c5 7c3c eb19 f73d 21de e4bd
000002d0: 7a0f 03bd 642b 773e 4d6e 963d a47e b03c
000002e0: a92c 67bd 76b0 a9bd a6ad cc3b 8258 243c
000002f0: 6c6a e83b 94c0 d3bd 3324 173e bc18 e5bd
00000300: cf8a 653d afd6 c63d 9714 853d 87a1 833d
00000310: 4e74 e3bd 7d6d 2fbe 7966 60bd 49f2 88bd
00000320: b5a9 a23d 784b b33c 5d49 24be 5fc0 93bd
00000330: 622c d63d d9ca 503d c34d 0fbc 9130 b3bd
00000340: c701 1ebd 228f 0b3e 0673 91bb 10c6 843e
00000350: 1bcb 35be 1be5 1abd acaf b7bd 6add 213d
00000360: 8d32 9c3d def8 e9bd 4192 08bd a92f 3e3e
00000370: 2eb0 443e a77e 27bb 9dc8 903b 1c55 423e
00000380: ea1d 95bd 9861 be3c a814 b53d 14c0 093c
00000390: 448b 9ebc 707a 3f3c 0eff 5c3d 9c2d 1e3b
000003a0: 39f2 02be 56ac 2fbe ab55 5bbe b5a8 913d
000003b0: 870f 20bc f77f 893d a4da 0bbd 2532 ad3d
000003c0: 31c4 17be 9cc1 a0bd 1225 503d 15eb 53bc
000003d0: 96ce 0ebe e445 adbd e854 f63c 8355 f53c
000003e0: 948a 70bd 2c6a 94bc 6a26 673d 55f8 243e
000003f0: b734 94bd b22b f7bd eced 333c 4547 203e

fc2.bias f4 [2]
-0.067896135 0.15658627
00000000: 210d 8bbd 2758 203e
